app/src/main/assets/lenguajeSenas.tflite (tflite, 223112 bytes, 12 tensors)

arith.constant f4 [64]
000000 1a ee bb 3d 8e 0d b4 bd dc 19 23 be df 5a 60 be
       0.09176274 -0.08791648 -0.15927833 -0.21909665
000010 11 a6 04 be 40 1e 3f be 07 60 98 bd 14 3e 06 3d
       -0.12953974 -0.18663883 -0.07440191 0.032774046
000020 8a 66 45 bd f4 f0 0a be 42 b0 61 ba 14 76 fb bd
       -0.048193492 -0.13568479 -0.00086093333 -0.12278381
000030 bf 37 f0 bd 5a 31 4a be a2 ec 24 be 4d c6 14 be
       -0.11729383 -0.19745389 -0.16105893 -0.1452877
000040 76 37 d0 bd bb 33 c5 bd a2 de 6a be d7 e6 53 be
       -0.10166828 -0.096290074 -0.2293649 -0.20693527
000050 a1 4a 43 be 15 45 00 bb d5 12 5e be 7d 31 5d be
       -0.19071437 -0.0019572426 -0.21686871 -0.2160091
000060 17 eb 18 be 0c 6f 95 bd 21 c8 e3 bd d7 be 72 be
       -0.1493343 -0.07296571 -0.11122156 -0.23705612
000070 f6 f4 b4 bd e4 88 3e be ab ac 41 be 8a 87 28 be
       -0.08835785 -0.18606907 -0.18913524 -0.16457954
000080 c1 96 1f be ef f3 99 bc 8d 8c 86 3b 49 40 dc bd
       -0.15584852 -0.018793074 0.0041061104 -0.10754449
000090 ad d2 1d be b0 5a 10 be cb b4 49 be b8 21 78 be
       -0.15412398 -0.14097095 -0.19697873 -0.24231613
0000a0 29 66 6d be 65 c2 a2 bc 30 dc 64 be c7 46 04 be
       -0.23183502 -0.019868085 -0.2234962 -0.12917624
0000b0 e3 7c 10 be 08 cc a9 bd e2 9c 23 be d1 c3 72 be
       -0.1411014 -0.08290869 -0.15977815 -0.2370751
0000c0 fe 4c 3c be ec c0 2e be b0 08 c5 bd 1b 89 49 be
       -0.18388745 -0.17065781 -0.09620798 -0.19681208
0000d0 b6 04 3e be 40 82 1e be f1 d2 2c be 45 36 8b be
       -0.18556485 -0.15479374 -0.16877343 -0.27189842
0000e0 8f bf 1c be 58 0e 94 bd dc c4 a7 bd 39 00 22 be
       -0.15307449 -0.07229298 -0.08191845 -0.15820397
0000f0 48 99 23 bc a3 c0 57 bd de 99 21 be ad 9a 02 be
       -0.009985276 -0.052673947 -0.15781352 -0.12754317

arith.constant1 f4 [32]
000000 02 f3 8e bd ab 0f 72 bd 9a 89 88 bd cf f8 d6 bd
       -0.06979944 -0.059096973 -0.066668704 -0.10496675
000010 4b 01 e1 bd 11 0a d7 3d 21 da b0 bd 0f 71 19 bd
       -0.10986575 0.10499967 -0.08635355 -0.037461337
000020 96 c1 d7 bd 56 d7 ba bd a3 a5 a6 bd 1a d6 b3 bd
       -0.105349705 -0.09123103 -0.081370614 -0.08781071
000030 3c e2 1a be f0 e9 dd bd a7 6c 8a bd ff 30 44 bd
       -0.15125364 -0.10835636 -0.06759005 -0.04789829
000040 40 3f 3b bd 93 d3 fc bd a8 d3 24 be ba 74 1d be
       -0.045714617 -0.12345042 -0.16096365 -0.15376559
000050 38 ce 91 be ad ae ca bd 81 40 ad bd d3 e1 bc bc
       -0.28477645 -0.09896598 -0.08459569 -0.0230569
000060 0e c1 3b be 8f 15 ea bd 27 13 82 be 67 08 06 be
       -0.18335363 -0.11429893 -0.25405237 -0.13089143
000070 11 b4 5e be f9 97 49 be 6b 50 f6 ba a4 c7 f6 bd
       -0.21748377 -0.19686879 -0.0018792277 -0.12049797

arith.constant2 f4 [64, 3, 3, 32]
000000 67 0e 61 3c df 2a aa 3d 02 52 8b bd 71 f8 1e 3d
       0.013736344 0.08308958 -0.06802751 0.03881115
000010 82 1e f6 bd 94 42 99 bb 18 42 ab bd 1b 02 0d 3e
       -0.12017538 -0.004677126 -0.08362216 0.13770334
000020 b1 1a 30 be 15 f0 5b 3e c0 ae f0 3c 42 20 f5 bc
       -0.17197682 0.21478303 0.029380202 -0.029922608
000030 85 27 22 be b8 e2 36 be 93 b7 d3 bc 52 51 f3 bc
       -0.15835388 -0.17859924 -0.025844371 -0.029701862
000040 cb 82 78 3e 11 f2 05 bd b5 02 ce bd 39 81 59 3d
       0.24268644 -0.032701556 -0.1005911 0.053101752
000050 01 24 37 3c 0a 23 28 bd cf 16 ab bc aa ae 32 3b
       0.011178018 -0.04104904 -0.0208849 0.0027264752
000060 85 71 06 3e 88 72 bd 3d d8 c4 e3 bd de b2 98 3c
       0.13129242 0.09250361 -0.11121529 0.018639978
000070 4b 06 3b 3d 68 09 c0 bd eb 49 32 bc 5e 88 4d bd
       0.0456603 -0.09376794 -0.010881881 -0.050178878
000080 f4 c8 83 bd f4 fc d4 bd c5 26 80 bc b6 a8 95 bd
       -0.06434813 -0.103998095 -0.015643487 -0.0730757
000090 70 69 a8 bd 79 d1 aa bd d3 be 10 bd 7e c7 d1 bd
       -0.082232356 -0.08340735 -0.035338234 -0.10243128
0000a0 d6 2c 18 bc 16 7a ad bd fe 81 ef bd 71 e8 29 bd
       -0.0092880335 -0.08470552 -0.11694716 -0.04148144
0000b0 b4 f7 98 3c 76 5d 36 be b2 f6 71 be 03 ad 97 bc
       0.018672802 -0.1780909 -0.23629263 -0.018515116
0000c0 ff 22 1f 3c cd 12 a1 3d 53 7d d3 bc 38 43 ca 3d
       0.009712934 0.07864914 -0.025816595 0.09876102
0000d0 c5 ee 30 be 27 9e a7 bd fb d1 a7 3c 52 b4 34 3c
       -0.17278583 -0.08184462 0.020485869 0.01102932
0000e0 69 26 c7 bd e4 7f af 3b 13 5a 39 be 86 70 7e bc
       -0.09724123 0.005355822 -0.18100767 -0.015529757
0000f0 4f 46 9d be 06 32 90 bd 22 e6 a1 bd 61 2c 3c be
       -0.30717704 -0.07040791 -0.079052225 -0.18376304
000100 2e bc 21 3e f8 d2 87 bc 6f 89 9f bd a9 f5 58 bd
       0.15794441 -0.01658009 -0.07789885 -0.052968655
000110 79 da 1c 3e c2 ec 15 be ae 80 13 be 31 38 0f be
       0.15317716 -0.14641097 -0.14404556 -0.13986279
000120 37 c4 52 bd 3d 79 61 bd e6 f8 2c be 12 99 89 bc
       -0.051456656 -0.055047262 -0.16891822 -0.016796622
000130 be ff 06 3c f5 f3 a7 bd 73 52 a9 bd c6 4a cf 3c
       0.008239685 -0.08200828 -0.08267679 0.02530421
000140 48 9b a3 bd 73 d9 f0 bd 9c 22 9b 3b 8a 4e 34 bd
       -0.07988602 -0.11760225 0.0047343504 -0.044020213
000150 e6 a7 1b bc cf ee 45 bb 54 c2 31 bd 76 35 a2 3d
       -0.009500479 -0.0030202155 -0.043398216 0.07920353
000160 a4 47 94 bd 31 72 4e 3d 95 b0 77 be ca bd 64 3d
       -0.07240227 0.05040187 -0.24188454 0.05584506
000170 a0 8d 54 be 85 2c 2e 3d d4 97 82 be d3 3e 4a bd
       -0.2075715 0.042522926 -0.2550646 -0.04937632
000180 b0 4f d0 bd d0 d5 0d be 47 a6 51 bc 96 d3 c8 3c
       -0.10171449 -0.13851094 -0.012795991 0.024514955
000190 b0 9a c2 bd dc 70 a1 bd 3f 1e 7e 3c 7b be fc 3b
       -0.095021605 -0.07882854 0.015510141 0.0077131367
0001a0 ba 02 6c bc 33 c1 39 3d 52 d2 4f bd d4 fe 80 bd
       -0.014404947 0.045350265 -0.050737686 -0.062986046
0001b0 5c 8e 05 3e 0d a0 ff bd 43 a9 33 be 89 27 8c bd
       0.13042587 -0.12481699 -0.17545037 -0.06843478
0001c0 af bd d7 bd 10 3c 72 be a0 ea 8a 3d ae 8e cc 3d
       -0.10534226 -0.23655725 0.067830324 0.099881515
0001d0 c3 57 81 bc 3a 00 5b bd 34 a4 34 3d c1 b3 9d bd
       -0.015788918 -0.053467013 0.04410191 -0.07700301
0001e0 44 1b 05 3d fd 0f ce 3c a3 20 aa 3d 37 3e c8 3d
       0.032496706 0.025154108 0.08307006 0.097774915
0001f0 0c b7 01 be 3a 2c fd bd 07 04 bf 3d e7 fb 8c be
       -0.12667483 -0.12361951 0.0932694 -0.27535936
000200 62 74 8b bd e2 ac cf bd 3f 80 95 bc 8b e1 84 3b
       -0.06809308 -0.10140397 -0.018249629 0.004055207
000210 4a 3d f2 3c 5f 8e c7 bd fb 4a 6e 3c a8 ba 02 bd
       0.02957024 -0.09743952 0.014544244 -0.03191629
000220 c2 85 12 3d 55 42 83 3d f1 20 dd bc f3 d0 2a 3c
       0.035772093 0.06409136 -0.026993247 0.010425794
000230 13 39 67 bd d7 f8 80 3d 08 8b 13 be 1a 61 29 be
       -0.056450915 0.062974624 -0.14408505 -0.16540948
000240 c3 10 17 3d aa 6d b1 3b 92 27 ea bd 1f 48 bd 3d
       0.03688122 0.0054146843 -0.11433329 0.09242272
000250 22 76 aa bd ff 79 48 be c4 00 bd bd 02 80 01 be
       -0.08323313 -0.19577788 -0.09228662 -0.12646487
000260 f0 04 a5 bd 9a e6 ba bd 4b b4 8b bd a6 a7 44 bd
       -0.080575824 -0.09126015 -0.068214975 -0.048011445
000270 ca 96 07 be 04 71 1e bd 26 eb 87 bd d4 d9 88 bd
       -0.13241115 -0.038682 -0.06636648 -0.066821724
000280 bb be 42 be 8e 0e 16 be d9 ba 2c be 25 38 00 3e
       -0.1901807 -0.1465399 -0.16868152 0.12521417
000290 fb 0e 61 3d 7b f6 f2 bd ba 10 59 3e e5 6e b4 bd
       0.054945927 -0.11863419 0.21197787 -0.08810214
0002a0 d2 09 f1 bc 20 f6 1d be a0 74 15 3e 4b c9 36 bd
       -0.029423628 -0.1542592 0.1459527 -0.04462556
0002b0 17 e8 9a bc 35 2f 3b be 42 fa 6b bd 90 93 ca 3d
       -0.018909497 -0.18279727 -0.05761171 0.098914266
0002c0 c8 b5 86 3d 6a 7d 98 3c 57 5b 0c 3e 42 ac 1a 3e
       0.06577641 0.01861449 0.13706718 0.15104774
0002d0 79 a2 2d be 42 21 b0 3d a7 63 63 bd 4e 8f 02 be
       -0.1695651 0.086000934 -0.055514958 -0.12749979
0002e0 27 c6 1a be d0 6d 20 3d dd bd 07 bd 6c 43 d6 3d
       -0.15114652 0.039167225 -0.033140052 0.104620785
0002f0 25 18 5e bd 82 7d ff bd d7 07 09 be 21 54 af bd
       -0.054222245 -0.124751106 -0.13381897 -0.08560968
000300 37 23 df bd 18 60 3a bc ae 14 b7 bd 51 e5 fc bc
       -0.108953886 -0.01137545 -0.08939491 -0.030871065
000310 71 13 55 be ad d3 72 bc 3e 80 d1 bb b7 84 06 3e
       -0.20808198 -0.014820975 -0.0063934615 0.13136564
000320 86 39 a8 bd f0 57 97 bd 04 c7 bc bc b8 5c 01 3e
       -0.08214097 -0.073898196 -0.023044117 0.12633026
000330 59 d5 68 bd d3 7b 7f bd c2 9c 16 bc b4 66 8e be
       -0.05684409 -0.062373947 -0.009192647 -0.2781273
000340 75 5d ff bd 09 74 38 3e f7 c8 83 be fe 23 8a bd
       -0.124689974 0.18013014 -0.25739262 -0.06745146
000350 71 8a b5 bd 71 0d 9a 3d 3c c7 06 3e fc b4 9e be
       -0.08864296 0.07522095 0.1316194 -0.30997455
000360 57 dc 19 bc e9 8f 67 3d 41 4c ac 3d ec 43 5d 3e
       -0.009390912 0.056533728 0.08412982 0.21607941
000370 a2 bc 6b be 61 3b 60 be fa 71 9c 3a ba f4 05 bd
       -0.23021176 -0.21897651 0.0011935823 -0.032704093
000380 df ab 4f be b2 2c fb 3d a0 e4 92 be 61 a4 02 3c
       -0.20280407 0.12264384 -0.28690052 0.007973761
000390 06 d8 07 bd 73 cc 1a bd c2 d0 03 be 9e 35 42 3d
       -0.033165 -0.037792634 -0.12872604 0.047414415
0003a0 3d 76 24 be 8b 7b 0e bd fd ca 46 be 97 0e 22 bc
       -0.1606073 -0.03478579 -0.19413371 -0.009891174
0003b0 84 c6 55 3d 9f eb 83 bd 90 42 ed 3c 58 0c fe 3b
       0.052191272 -0.064414255 0.028962404 0.0077529363
0003c0 35 a8 a1 bd 84 be c0 bd e0 7a 3d 3c ce 26 2a 3c
       -0.07893411 -0.09411338 0.01156494 0.010385228
0003d0 ee 74 aa 3c ca 53 01 be 66 04 bd bd 11 b3 0e bd
       0.02080771 -0.12629619 -0.092293546 -0.03483874
0003e0 92 32 be 3c 3a 67 18 3d e4 31 5a be 83 76 86 3d
       0.023217473 0.03720782 -0.21308094 0.06565573
0003f0 1f ee 1a be d1 ad 2e be fc 42 07 bd 1e e1 fb bd
       -0.15129898 -0.17058493 -0.033022866 -0.12298797

arith.constant3 f4 [32, 3, 3, 16]
000000 e1 f5 47 be 1a 5c ad 3d 6a ae 02 bf c0 6a 44 be
       -0.19527389 0.084648326 -0.51047385 -0.19181347
000010 ee 69 41 bd a8 d2 6f be a9 5b 0e bd cc 00 9c bd
       -0.047220163 -0.23420203 -0.034755383 -0.076173395
000020 26 35 b8 bb e0 93 26 3b b1 5e 5c be d3 45 76 3d
       -0.00562157 0.002541773 -0.21520497 0.060125183
000030 32 0e 9a 3c 8a be bf b9 39 fb b1 bd f7 c3 d4 3c
       0.018805597 -0.00036572322 -0.08690495 0.02597235
000040 6f fb 09 3c f1 6b 01 3e 24 3f a3 be 9c cc cf bd
       0.008421763 0.12638833 -0.3188411 -0.10146448
000050 19 c1 cc bd ca 69 95 be b9 ee 49 bd ab d1 e9 bc
       -0.09997768 -0.29182273 -0.04929993 -0.02854236
000060 83 6a 80 be eb 50 0c 3e d2 98 a6 be 5f e5 f2 bd
       -0.25081262 0.13702743 -0.32538468 -0.11860155
000070 fa ec 89 3e 69 10 78 3e fd 3f c7 bd 59 9f 35 be
       0.2693861 0.2422501 -0.09729002 -0.17736568
000080 e4 54 c6 bc bf b9 87 3e c4 bc 38 bf fc 7a 88 bc
       -0.0242104 0.265089 -0.72163033 -0.016660206
000090 09 8d 5d be 10 52 48 bf 6b 33 85 be ab fb ab bd
       -0.21635832 -0.7825022 -0.2601579 -0.08397611
0000a0 8e c6 87 be 5c 18 53 3e d8 9f 90 be e4 bf 27 3e
       -0.26518673 0.20614761 -0.2824695 0.16381794
0000b0 a9 8c 19 3f 79 31 7d 3e 3e 64 6d bd 95 4d a0 3e
       0.59980255 0.24725904 -0.057956927 0.3130919
0000c0 2a 09 07 3d 89 a4 c1 bd 05 5b 78 be 60 2b 62 3c
       0.032967724 -0.09455211 -0.24253471 0.013804287
0000d0 db 61 8c be db ee 77 be 5f 28 7b be 6c 66 9f be
       -0.27418408 -0.2421221 -0.24527119 -0.3113283
0000e0 bc e8 ff 3c 3a 38 6c 3c 4d 6b 58 bc 3c 03 bb 3d
       0.031238906 0.014417702 -0.013209176 0.09131476
0000f0 5e c1 1d bd 1b a9 39 3d 32 49 28 be 74 6a e0 3b
       -0.038514487 0.045327287 -0.16434172 0.0068486277
000100 8a dc cb bd ca a6 23 3d a3 8c a3 be 95 2d fd bd
       -0.09954174 0.039953984 -0.31943235 -0.1236221
000110 aa 90 e9 bd 37 0e c6 be b1 4c c5 be ce 55 0e be
       -0.114045456 -0.3868272 -0.38535073 -0.1389992
000120 53 50 3d be 81 30 a7 3d 50 05 18 be 35 cf b0 bd
       -0.18487673 0.08163548 -0.14845777 -0.086332716
000130 41 ae c2 ba 82 6e 58 3e 95 86 1a be 2c 45 a7 bd
       -0.0014852957 0.21135905 -0.15090401 -0.0816749
000140 26 bd 73 be 08 a9 82 3d 5f 32 f5 be 3e d6 1b 3c
       -0.23802623 0.063798964 -0.47889993 0.009511529
000150 91 6b 98 bd 30 41 81 be cd 36 47 be 77 06 9f bd
       -0.07442392 -0.25245047 -0.19454499 -0.07764905
000160 01 a5 2f 3d dc b4 25 3e 18 44 91 3b 2e 04 b4 3d
       0.04288197 0.16182274 0.0044331662 0.0878986
000170 8c 94 08 3e 6b e5 73 3e 7b 7e a5 be a0 8a 39 3d
       0.13337916 0.23817985 -0.3232306 0.04529822
000180 19 30 5f be 90 01 12 bc 8a e0 90 be 8c d7 42 3d
       -0.21795692 -0.008911505 -0.2829631 0.047568843
000190 9e ee 39 be 67 a0 72 bc fd f9 ae bd f7 50 29 be
       -0.18157431 -0.014808751 -0.08543775 -0.16534792
0001a0 5c 1c 32 3d 62 a8 70 bd 3e a7 a9 3d d5 76 f8 3d
       0.043484077 -0.058754332 0.08283852 0.121320404
0001b0 a1 d5 05 3e 02 cb 92 3d 04 85 99 be 3f ab 95 be
       0.13069774 0.07167627 -0.29984295 -0.29232213
0001c0 be 14 b9 bb b4 48 31 be c1 4c 79 be 0b 15 a0 bc
       -0.0056482246 -0.1731289 -0.24345686 -0.019541284
0001d0 07 88 08 be 56 03 55 bd 4e 3d 9d be 41 f2 99 bd
       -0.1333314 -0.052005135 -0.30710834 -0.075169094
0001e0 f1 b1 26 3d c0 95 31 bd 25 a9 b0 3d 42 1e e2 3c
       0.040697042 -0.043355703 0.08626012 0.027602319
0001f0 5f 3e c7 bd 94 8f 19 be 55 d1 c6 bd bc 0d 2e be
       -0.09728693 -0.14996177 -0.09707896 -0.16997427
000200 ad 98 2f be d1 86 5f be f9 a7 e9 be 26 92 cf 3d
       -0.17148085 -0.21828772 -0.45635965 0.101352975
000210 8d 9c 8c be d0 c7 55 bd 89 8e d3 be 45 f4 b8 be
       -0.2746319 -0.05219251 -0.41319683 -0.36123863
000220 51 80 f5 3d e8 b1 a9 bd fe 28 1b bd 6a 3d 03 be
       0.11987365 -0.08285886 -0.03788089 -0.12816396
000230 d6 ef 26 3e 67 0a 4f bd df e7 c0 be b0 65 ce be
       0.16302428 -0.05054703 -0.37676904 -0.40311956
000240 70 56 1e be 2b 67 a1 bd 59 38 ce bd 5a ac 07 be
       -0.15462661 -0.07881006 -0.10069341 -0.1324934
000250 57 00 65 be 67 2e 15 bd 17 b9 eb 3e 26 a7 84 be
       -0.22363411 -0.036421206 0.4603965 -0.25908774
000260 6b 9d b4 bd 0c 25 72 bd 73 bb 51 bd 7d e1 17 3e
       -0.088190876 -0.059117362 -0.051204156 0.1483211
000270 02 ab 28 be ee 30 38 be 10 ae 67 be 7a a7 dc 3e
       -0.16471484 -0.17987415 -0.22624993 0.43096524
000280 1b 8b c9 3d e8 a8 b8 3d 54 4e 72 3d 4a e9 83 be
       0.098409854 0.09016591 0.05915673 -0.25763923
000290 da 14 8c be fe a8 87 3d 50 08 55 3c 5d 8a 85 bb
       -0.27359658 0.066240296 0.01300247 -0.004075332
0002a0 10 b8 c3 bd b0 ab 92 bd 3b b9 6c 3c d5 f9 28 be
       -0.095565915 -0.07161653 0.014448459 -0.16501553
0002b0 78 0f ae 3d 2b 63 b4 3e 43 9f f0 bc 96 4c 06 be
       0.08499044 0.3523191 -0.029372817 -0.13115153
0002c0 c6 8a f5 bc fc 21 87 bd a5 db 6a 3e 8b 9f c9 bc
       -0.029973399 -0.06598279 0.2293535 -0.024612209
0002d0 eb d4 fd bd 89 df 08 be eb 33 33 3d 38 70 f5 bd
       -0.123941265 -0.13366522 0.043750685 -0.11984295
0002e0 e3 5e f5 3d 8a 49 43 3e 9a 99 75 3d ec 59 6d 3c
       0.11980989 0.19071022 0.05996094 0.014486771
0002f0 c2 11 24 bc bf 09 30 3e aa b2 81 bc d9 66 22 3e
       -0.010013999 0.17191218 -0.015832264 0.15859546
000300 9b 2e 07 3c fe 80 19 3e 88 17 12 bd 1b 15 00 be
       0.008250858 0.14990613 -0.035666972 -0.12508051
000310 58 d9 c5 bb 3a ce 12 be 5b 24 ed 3e 82 73 d5 3d
       -0.0060378723 -0.14336482 0.463168 0.10422422
000320 2d e6 3d be d5 75 08 bd e1 00 d8 bc 87 80 7d 3c
       -0.18544836 -0.0333155 -0.026367607 0.015472538
000330 e2 21 ee bd d3 16 cb bd fe dd 2f 3e 45 f3 9e 3e
       -0.116275564 -0.09916463 0.17174527 0.31044975
000340 27 16 73 3c 71 4e 00 bd e8 39 20 3e c2 a6 16 be
       0.0148368245 -0.031324808 0.1564709 -0.1471205
000350 e9 22 6e bd 64 be 5e 3d 71 17 c5 bc 20 c9 85 3d
       -0.05813876 0.05438079 -0.02405903 0.06532502
000360 31 71 fa bd 06 aa 17 be 9f eb 50 bd 98 fd 84 be
       -0.12228621 -0.14810953 -0.051005956 -0.25974727
000370 e7 2b c1 3d 44 9c 3f 3d 5f 62 01 3e 78 02 2f be
       0.09432202 0.046779886 0.12635182 -0.17090786
000380 c8 61 4b bc 76 ba 05 be 83 80 96 3d b7 f1 49 3e
       -0.01241345 -0.1305941 0.073487304 0.19721113
000390 75 aa 21 be 8c 3c 1c bd 69 93 78 3e 20 80 f3 bd
       -0.1578768 -0.03814368 0.24274983 -0.11889672
0003a0 bf 8f ce 3d 05 e6 68 be cf 9e 4b 3c a2 83 32 bd
       0.10086011 -0.22743995 0.012428 -0.043582566
0003b0 79 5a e5 3b 1a 97 31 bc 34 af b5 bc 33 34 96 3e
       0.0069993106 -0.010839248 -0.02217827 0.293367
0003c0 88 af f4 3c 60 7a 96 bd 33 2e f0 3d 5d a8 44 be
       0.029868856 -0.0734756 0.11727562 -0.1920485
0003d0 97 83 fb bd 1d bc 5b be 08 e6 4b bd 55 ba 02 bd
       -0.12280958 -0.21458478 -0.04977992 -0.03191598
0003e0 b0 92 14 be 00 54 f6 bd 4d 18 4a 3c 7e 07 f5 bd
       -0.14509082 -0.120277405 0.012334895 -0.1196432
0003f0 1b 55 43 be f4 8b 77 3d fc 78 3b 3d e4 60 7b 3e
       -0.19075434 0.060436204 0.045769677 0.2454868

arith.constant4 f4 [24, 30]
000000 a1 6f 37 bf 9d 9d 4a 3e dd 89 16 bf ee 04 75 3e
       -0.7165471 0.19786687 -0.5880411 0.23927662
000010 c2 23 16 3e a3 8c 5f 3e 4e 47 ec 3e 8c 98 21 3e
       0.14662078 0.21830992 0.4614815 0.15780848
000020 c2 17 90 bd 8b e0 22 be c3 e3 9b 3e 0b 05 57 3e
       -0.070357814 -0.15905969 0.30447206 0.20998017
000030 b9 77 39 bf 7d 92 09 bf be e9 84 3e c0 e6 9f be
       -0.7244831 -0.5373915 0.2595958 -0.31230736
000040 6b e0 64 bf c9 7a e3 be 8d fb 4e bf 32 3e cd bd
       -0.89404935 -0.44429615 -0.80852586 -0.100216284
000050 a5 69 bd 3d f6 8d 1b be ea 4e 33 be e9 7d a0 3e
       0.09248666 -0.15190873 -0.17510572 0.31346062
000060 dd 1c 16 bf 96 47 57 3e 9b 6f 9a bf 23 5e 7a bf
       -0.5863779 0.21023402 -1.2065309 -0.9779989
000070 30 3c 51 bf 64 e1 aa 3e 13 53 8a bf e5 6f 2e 3e
       -0.81732464 0.33375084 -1.0806602 0.17034872
000080 2f 79 4a bf e7 3e 76 3e 95 85 81 bf 2f 27 68 bf
       -0.7909116 0.24047433 -1.0118891 -0.9068479
000090 78 ff 5c be e3 9c 99 3e 9b fd fa be ab fd ec bf
       -0.21581829 0.30002508 -0.4902161 -1.8514913
0000a0 e5 7d b1 3e 47 e9 30 3e ae 11 ce 3d 75 49 d1 3e
       0.34666362 0.17276488 0.10061966 0.40876356
0000b0 78 dd 72 bf 07 06 81 bf a6 a9 b0 be b7 39 65 bf
       -0.94869184 -1.0079964 -0.3450443 -0.8954119
0000c0 61 bf 20 bf 6b 68 86 3e 5a b2 67 3e 89 ca 05 bf
       -0.6279202 0.2625154 0.2262663 -0.5226217
0000d0 6e 3c 91 3c 98 cf 2e bf 21 bf ef 3e 08 2e b0 3e
       0.01772901 -0.6828551 0.46825507 0.3441012
0000e0 7b 04 a0 bf 93 9e b8 bf 11 d6 34 bf 25 16 a2 bf
       -1.2501367 -1.4423393 -0.7063914 -1.2663008
0000f0 db 42 84 3e 45 26 8d 3d 41 d6 04 3e 6d a6 17 bd
       0.25832257 0.06892065 0.12972356 -0.03702395
000100 50 ea f0 3d 3b 08 e6 be 3f 9e 08 bf 99 80 51 bf
       0.117634416 -0.44928154 -0.53366464 -0.8183685
000110 9f 21 0c bf e9 d7 89 bd 70 46 a1 bf 9a 41 d3 be
       -0.547388 -0.06730635 -1.2599621 -0.41260988
000120 69 18 4c 3e e3 60 2c bf ca 2b c7 bc 32 df 35 be
       0.19931187 -0.6733534 -0.024312872 -0.17760924
000130 1c 42 ae 3e 97 b3 d5 3d 01 12 d6 3d 32 b4 3c be
       0.34034812 0.10434645 0.10452653 -0.18428114
000140 2a 14 29 be 49 75 9a be c4 e7 69 bf f2 d4 82 be
       -0.16511598 -0.30167606 -0.9136927 -0.2555309
000150 d0 12 f9 3d 89 ba 57 bf 94 71 47 3e 6e 0c 5e 3d
       0.12161791 -0.84269005 0.1947692 0.054211073
000160 e4 bb 56 3e b5 af 8f 3e c0 dc cf 3e ff 97 6d bf
       0.20970112 0.2806374 0.40598106 -0.9281005
000170 07 17 84 3e 6e 2e 74 bf 2d 76 71 bf 21 a5 fc be
       0.25798818 -0.95383346 -0.94320947 -0.49344733
000180 e8 5c 65 3e 75 6c ac 3d e7 4f 90 3d ab b1 be 3d
       0.22398722 0.08419124 0.0704649 0.09311231
000190 a8 9e 65 3d 42 51 3c bd a0 99 bd be 7c e0 8f 3e
       0.05605951 -0.04597593 -0.3703127 0.28100955
0001a0 ca 27 b2 bd 07 22 22 bf 00 2b ac 3e 74 bf 5e 3e
       -0.086989954 -0.6333317 0.33626556 0.21752721
0001b0 bd 90 0b 3e ba 7c 92 3e dd 9c cd bd 1b aa 2e bf
       0.13629432 0.28610784 -0.10039685 -0.6822831
0001c0 78 f2 38 bd f8 31 8d be 52 9b 14 bf 5b 65 ed 3c
       -0.04515311 -0.27577186 -0.580495 0.028978994
0001d0 2a 64 7b 3e 24 48 95 be b5 03 93 3e 1c ef 09 bf
       0.24549928 -0.291566 0.28713766 -0.53880477
0001e0 b7 0b c1 be 28 83 5b 3e 71 23 f0 be 27 a5 7a 3e
       -0.3770425 0.21436751 -0.4690204 0.24477063
0001f0 92 c8 f4 be 60 b4 7f 3e f5 ce 51 3e 8a 1d 88 3e
       -0.47809273 0.24971151 0.20489104 0.26585037
000200 b2 70 63 bf f3 ed 81 bf 74 4d 72 3d 16 f5 82 3e
       -0.88843834 -1.0150741 0.059155896 0.2557761
000210 cb 4f 05 3f 29 a8 38 bf cd 31 1d 3e df a2 65 bf
       0.5207488 -0.7213159 0.15351029 -0.89701647
000220 50 73 a5 bf b4 0d a2 be 32 e8 89 bf c1 0a 05 bf
       -1.2925816 -0.3165108 -1.0773985 -0.51969534
000230 9f f5 66 3e 11 07 ca 3d e3 a4 67 bf a8 dd 63 bf
       0.22554635 0.09864629 -0.9048597 -0.89010096
000240 50 0b cd 3e 03 ce ca be 26 32 f4 be aa ed 3d bf
       0.40047693 -0.396103 -0.4769451 -0.7419077
000250 c0 5b 24 bf 21 3b 31 bf aa 20 b4 be b3 e9 38 bf
       -0.642025 -0.6923085 -0.3518117 -0.72231597
000260 e2 a2 ac be 20 e4 4e be 4a ef 8a bf 3b c5 93 bf
       -0.3371802 -0.2020421 -1.0854275 -1.1544565
000270 d7 a0 d0 be de e2 5a 3e 59 15 29 bf 2f 1b 3d bf
       -0.4074771 0.21375605 -0.660482 -0.73869604
000280 f1 9f 85 bd 15 c4 f7 be 23 1f d1 3e 4b fd ce 3e
       -0.06524647 -0.48391786 0.40844068 0.40427622
000290 82 8a ac bf 3e 2c 23 be 0d e5 24 3e 83 bb f5 3d
       -1.3479769 -0.15934846 0.16103001 0.11998656
0002a0 4c ae ca bd 8c 3f 9d 3e 78 55 1f 3e 3e cc cb 3c
       -0.09896526 0.30712545 0.15559947 0.024877664
0002b0 78 21 30 3e 15 dc 85 bf 10 c7 02 3f 6d e4 09 be
       0.17200267 -1.0457789 0.51084995 -0.13466044
0002c0 f0 00 b1 3d c2 cc 38 be 1a 3c 69 3e f2 ed 25 bf
       0.08642757 -0.18046859 0.22776833 -0.648162
0002d0 2e 3e ae 3e b8 29 f3 be b8 07 81 3e 88 7a c3 bf
       0.34031814 -0.47492766 0.252012 -1.5271769
0002e0 35 2f c4 be 8d 74 71 3e 4e 97 99 3d d7 d2 96 bf
       -0.38317266 0.23579617 0.07499562 -1.1783093
0002f0 34 72 3c 3d bc 15 26 3e 4f ff b3 3e 59 7e 6f bf
       0.04600735 0.16219229 0.35155722 -0.93552166
000300 00 d1 8e 3e 4d 0e 4d bf 2e 6e 07 bf 3a 07 bd 3c
       0.2789383 -0.80099946 -0.52902496 0.023074735
000310 ff 86 ed be 7d 88 0d 3e 71 f3 c1 bd 47 5e be 3c
       -0.46392056 0.13821597 -0.09470261 0.023238314
000320 6a 4e e6 3b 24 f7 c5 3e a1 0e 9d 3e e6 62 06 3d
       0.0070283907 0.38665116 0.30675223 0.03280916
000330 d0 14 69 be b8 63 08 bf dc 10 09 3e 99 1c 1e bf
       -0.22761846 -0.5327716 0.13385338 -0.61762387
000340 86 6c 9f 3e f2 de db bd cc ce 86 3e 6d e6 29 3e
       0.31137484 -0.10735883 0.26329648 0.16591807
000350 5e f9 59 3e 8b 92 32 bf 24 17 10 bf 5f cb 36 3e
       0.21286532 -0.69754857 -0.5628531 0.17851017
000360 3d b0 52 bf 1d 64 86 bf 2a bc 5b bf 44 7f 12 3d
       -0.8230017 -1.0499302 -0.8583399 0.0357659
000370 98 13 c0 be a9 ac 8b bf 28 d9 d6 3e cb d9 c5 be
       -0.3751495 -1.0912067 0.41962552 -0.38642725
000380 a6 11 61 bf b8 ef b9 be 05 88 05 bf ab c8 bb be
       -0.87917554 -0.36315703 -0.52160674 -0.36676535
000390 8a 27 e8 bd 3d 15 48 bf 20 1d 92 3d e8 22 da 3e
       -0.113356665 -0.7815741 0.071344614 0.42604756
0003a0 d0 9d 97 3e e2 d7 d2 be 75 e0 e0 3e fd 63 97 bf
       0.2961259 -0.4118033 0.43921247 -1.1827389
0003b0 c0 e3 1f 3e e0 3c e9 3d 5c 24 90 3e 1c 7d 0a be
       0.15614223 0.11388564 0.2815274 -0.13524288
0003c0 51 29 b6 3e 5f a7 47 bf 57 1d 15 be 08 1e a9 be
       0.35578397 -0.77989763 -0.14561974 -0.33030725
0003d0 94 f2 26 bf fc 95 a4 3e 2d a8 ec be e1 bc 08 be
       -0.65213895 0.3214568 -0.46222058 -0.13353302
0003e0 eb ad bb be d2 97 b0 be 68 45 e9 3e 69 16 8e 3e
       -0.36656126 -0.3449083 0.45560765 0.27751473
0003f0 53 73 75 3e 28 45 4a be c0 ee 80 be 2a 1e 1e bf
       0.23969774 -0.19752944 -0.25182152 -0.61764777

arith.constant5 f4 [30, 50]
000000 ed a5 2e be 00 59 4d bf 20 4e 4f 3f 4f 20 38 3e
       -0.17055483 -0.8021393 0.80978584 0.17981075
000010 48 1c 1e 3e e5 67 8b bc 36 46 39 3b cc 3d 86 bf
       0.15440476 -0.017017314 0.0028270609 -1.0487609
000020 2c e8 4a bd a3 67 84 bd 2f f2 70 3e d1 6e 2f be
       -0.049537823 -0.0646508 0.23529886 -0.17132117
000030 5e ab d3 3e ac 60 0e bf 3d 66 f2 3e 63 4d 11 be
       0.4134168 -0.5561626 0.47343627 -0.14189677
000040 80 ab 94 3e 21 de 5d 3c 8e 91 02 3e 24 c4 46 bd
       0.29037094 0.013541729 0.12750837 -0.048526898
000050 28 56 73 3c f5 41 8f be ad 1b 90 bc 08 57 85 be
       0.014852084 -0.2798001 -0.017591322 -0.26042962
000060 9e 1f ee 3d d2 02 2e 3d 06 32 18 3f 29 2d df 3d
       0.11627124 0.04248316 0.5945133 0.108972855
000070 0e 41 22 3e f6 8f 05 bd 38 07 bb bd a8 9e a7 be
       0.15845129 -0.032607995 -0.09132236 -0.32738233
000080 0d 9b 0c be 29 5d ca be 4c ca 00 bd b8 34 b3 bf
       -0.13731022 -0.395242 -0.031442925 -1.4000463
000090 18 10 46 be 72 65 dc 3d aa 69 23 3f 55 7a fc 3e
       -0.19342077 0.10761537 0.63833106 0.49312082
0000a0 cd 2c 4d 3e af 8b e8 be 0c 6c 00 bd 50 63 84 be
       0.20036621 -0.4541907 -0.03135304 -0.2585702
0000b0 6b e9 d9 be 87 f5 82 bd 37 1d 39 be 78 7b 32 3c
       -0.42560896 -0.06394487 -0.18077551 0.010893695
0000c0 95 14 3c be 97 57 65 3d 2c 6c 8a bd ab 1e 96 3f
       -0.18367226 0.055991735 -0.067589134 1.1728109
0000d0 d7 f1 1c 3d 6c 14 b6 bd 53 79 29 3f 63 02 92 3e
       0.038316574 -0.08890614 0.6620075 0.28517446
0000e0 52 2c 22 3c 32 ea bc 3e d7 80 07 3f 83 8d 54 be
       0.009898262 0.36897427 0.5293097 -0.20757107
0000f0 66 bd d4 3e 66 95 29 3f 84 65 a2 bd c5 a0 09 bc
       0.4155075 0.6624359 -0.07929519 -0.008400147
000100 14 cd a7 3d c1 be 51 bc 62 d5 ed bc 2e 97 cd bd
       0.081934124 -0.012801827 -0.029032413 -0.10038601
000110 4b 2f 85 be 33 ef 8b 3d f3 fc b4 3e 55 30 83 3e
       -0.26012644 0.06832733 0.35349235 0.25622812
000120 14 a4 68 3e 7e a4 6e be cd 78 26 bd 68 c8 22 be
       0.22718841 -0.23304936 -0.04064255 -0.15896761
000130 20 09 67 3d 38 63 5b be 56 dc 55 bd c8 4c 0e be
       0.056405187 -0.21424568 -0.05221208 -0.13896477
000140 f3 8e a1 3e 62 f5 39 3e 5d f3 17 bf 0d d4 ff be
       0.31554374 0.18160012 -0.5935572 -0.4996647
000150 b2 0f 3c 3e 12 3c 01 3f 0e de 5e bf b4 a1 5a bd
       0.18365362 0.50482285 -0.8705758 -0.05337687
000160 44 50 16 bd 7d e1 63 be 9e 96 9e be c4 7a 70 3f
       -0.03669764 -0.22253986 -0.30974287 0.93937325
000170 b4 e4 1e 3f 77 59 f8 3c 32 93 0d 3e b2 39 7b be
       0.62067723 0.030316098 0.13825682 -0.24533728
000180 6f 41 ed 3d 78 ea 04 bd ed d9 f1 bd a6 9a 03 3e
       0.11584746 -0.03245017 -0.11809144 0.12851962
000190 da 5b 49 3d b8 c5 f4 3e 47 1d 24 3e b9 35 2b be
       0.049159862 0.47807097 0.16026793 -0.16719712
0001a0 b8 e3 ad 3e e7 77 2a bf a4 77 24 3c f8 a4 a0 be
       0.33962798 -0.66589206 0.01003829 -0.3137586
0001b0 36 46 e1 be 90 61 c3 3e a0 47 42 3c 08 4b 60 be
       -0.4399888 0.38160372 0.011857897 -0.21903622
0001c0 29 a5 4f 3e 6d da 71 bf 12 85 00 3c cb 07 ee 3e
       0.20277847 -0.94473916 0.007844226 0.4649032
0001d0 59 ae b7 bd ac d6 24 3f b5 8a 87 be 90 31 0c bf
       -0.08968801 0.64390063 -0.26473013 -0.54763126
0001e0 95 0b f9 3d 7f 80 c7 be 97 95 69 3f 0d 7f f6 bc
       0.12160412 -0.38965222 0.9124388 -0.03008988
0001f0 cf a1 32 be 7e 81 12 3f 4c 04 c6 3c 22 95 87 be
       -0.17444538 0.5722884 0.02417197 -0.26480967
000200 22 ce 88 3e e5 3c b0 bd e3 b2 52 3e 81 a9 b2 3c
       0.26719767 -0.08605365 0.20576052 0.021809341
000210 87 68 12 3e 99 3c 80 be 04 01 20 3e 6e 28 ab 3d
       0.14297687 -0.25046232 0.15625387 0.08357321
000220 0e 22 e6 3e 10 df c1 3e e5 4d 28 3d d9 6d bf be
       0.44947857 0.37865496 0.04108991 -0.37388495
000230 a8 fa 3d 3e 13 0b dd be 3f c4 6e be 51 69 c0 3d
       0.18552649 -0.4317251 -0.2331705 0.093950875
000240 db 99 ac 3c 08 80 00 3f b6 89 68 3e 7c 54 6c be
       0.021069458 0.5019536 0.22708783 -0.23079103
000250 c5 dd 43 bd ea ec f4 3e 9f d3 1d bf 2d dd 6e 3f
       -0.047818918 0.47837 -0.61651033 0.9330624
000260 28 12 c6 3d 47 df 7e 3e 6c ee a2 3e 72 36 29 3f
       0.09671432 0.24889861 0.31822526 0.660987
000270 96 ff 84 bd b6 2a 4d 3d bf fe 4c 3d 51 85 04 bf
       -0.06494062 0.05008956 0.050047632 -0.51765925
000280 0d 15 84 be 73 ad 20 3f 16 2b 79 3d 3f 15 39 bb
       -0.2579731 0.6276466 0.060832106 -0.0028241423
000290 d5 47 23 bd 01 12 ef be dd 67 ef 3c 18 f1 68 bf
       -0.039863426 -0.46693423 0.02922433 -0.9099288
0002a0 f2 33 51 bd 35 99 ae 3e 39 32 24 3e 5d 34 85 3e
       -0.05107493 0.34101263 0.16034783 0.26016513
0002b0 9f 80 02 3e af 61 b5 be 5c b1 c6 3d e4 17 ee be
       0.12744378 -0.3542609 0.09701797 -0.46502602
0002c0 e8 3b 5e 3e 00 33 38 3e 3a 97 9d be 63 9c 6b be
       0.2170254 0.17988205 -0.3077944 -0.23008876
0002d0 05 41 31 bc de 3a ae 3d 13 7c 5e be 43 39 fe bd
       -0.0108187245 0.08507322 -0.21727018 -0.124132656
0002e0 ea 9a 7b bd 8e 2e f4 3e b5 52 2a bd 2a ad 03 bf
       -0.061427034 0.47691768 -0.04158278 -0.514361
0002f0 70 e7 8c 3d ea 4e d4 bd 5d e6 83 3b 7c 44 82 3f
       0.06880081 -0.10366614 0.004025264 1.017715
000300 df c2 d2 be 0e f5 d2 3e 6e e9 d3 3c fa e5 96 3c
       -0.411643 0.41202587 0.025868144 0.018420208
000310 69 74 9f bd e8 76 6c be 41 1a 8a 3e f4 3c 50 3d
       -0.07785875 -0.23092234 0.26973155 0.05083938
000320 95 a1 ce 3e 18 65 45 be f1 41 6f bc e8 46 b3 3e
       0.40357652 -0.19276845 -0.014603124 0.35015035
000330 bd cc 8d 3c 63 7b 5b 3e 41 df df 3d 41 c2 de 3d
       0.01730954 0.21433787 0.10931254 0.10876895
000340 6a 21 3b 3f f2 0a 20 bf be a5 c2 3e 45 7a 64 3e
       0.7309786 -0.625167 0.38017076 0.22312267
000350 df 23 f2 3b fe 56 e8 bd 9a 6b 3c bf d4 61 a2 be
       0.00738953 -0.113447174 -0.73601687 -0.31715262
000360 6d c4 d0 3d bc 70 a6 bf 5d 3f c1 3c b9 fb a3 be
       0.10193715 -1.3003154 0.023589784 -0.32027987
000370 5c cc 9a 3e 28 b5 84 3e 3e df 41 be ed e4 fb 3e
       0.3023404 0.2591946 -0.18932816 0.49198094
000380 7e c7 f4 3d f3 15 27 bf 05 55 c7 3e 52 c7 30 bf
       0.119521126 -0.65267867 0.38932052 -0.6905414
000390 ad ed 26 bd 6a 72 69 bf e3 ab 80 3d fa 1f a5 bc
       -0.04075401 -0.91190207 0.06282785 -0.02015685
0003a0 b0 72 38 be 92 d9 bf be 6e 66 9d 3d 6d 4d 28 3e
       -0.180125 -0.3747068 0.076855525 0.16435786
0003b0 28 01 29 be f9 fc ca be 5b 99 d8 3c 31 29 a5 3e
       -0.16504347 -0.39646128 0.026440313 0.3225799
0003c0 1b 07 85 be a8 79 c9 bd f4 76 0c 3f 42 a6 c0 3d
       -0.25981984 -0.09837657 0.5486901 0.09406711
0003d0 45 63 4d be ff da 8f 3c 48 26 94 be 6d 12 1e 3e
       -0.200574 0.01756048 -0.28935456 0.15436716
0003e0 d6 2c 09 3e 4a c4 07 3e 76 83 bb be b2 de 8b 3d
       0.1339601 0.13258472 -0.36623734 0.06829585
0003f0 0f 3f 50 3e aa 2d 05 3f 0e 0e a2 3e f1 52 ea 3d
       0.20336555 0.520228 0.31651348 0.11441601

arith.constant6 f4 [50, 576]
000000 fa bb f0 3c 5b 42 d6 bc c4 62 ec bc cb 3d 27 3e
       0.02938651 -0.026154688 -0.028855689 0.16332166
000010 b4 39 20 be fa cf bd bd 3b 04 a4 bd 56 a2 a4 bc
       -0.15647012 -0.09268184 -0.080086194 -0.020096939
000020 ea 4a 8b bd 39 54 cd bc ef a6 1c be c8 c4 2d 3e
       -0.06801398 -0.025064575 -0.15298055 0.16969597
000030 84 64 24 3d c1 f3 97 be 84 99 1b 3e 81 b0 d8 bd
       0.04013492 -0.29678157 0.1519528 -0.105805404
000040 a0 31 44 3e bb 47 22 3e 22 77 51 be a0 93 6b bb
       0.19159555 0.15847676 -0.20455602 -0.0035946146
000050 a2 5c 64 bd 07 30 91 bd af 8d 10 be d8 16 4f bc
       -0.055752404 -0.070892386 -0.14116548 -0.012639724
000060 24 2a b2 bd 8e b8 85 3d 50 17 a8 3c 0a 24 b3 bd
       -0.08699444 0.06529342 0.020518929 -0.08747108
000070 53 58 76 be 0c cd 66 be 39 3f 35 3d 28 10 c2 bc
       -0.2405713 -0.22539157 0.044249747 -0.023689345
000080 19 ff fc bd 2a 24 ff 3d f7 f3 0d 3d 6a a9 47 3c
       -0.123533435 0.124580696 0.03465649 0.012186388
000090 2c b6 74 3d 88 7f 40 3e ba 12 5a bd 4e d4 66 be
       0.059744045 0.1879865 -0.053240515 -0.22541925
0000a0 2c 6e ce bd e7 64 9e 3d 9a b2 3d be ca c1 e7 3c
       -0.10079607 0.07734089 -0.18525162 0.028290648
0000b0 ee ce dd 3c f3 ee c2 3d bf 67 48 3e 94 36 fe bd
       0.02707621 0.09518232 0.19570826 -0.12412754
0000c0 52 8c 91 bd 55 b6 99 be 33 e0 1e bd bb 5f c9 3c
       -0.07106842 -0.3002192 -0.03878803 0.02458178
0000d0 2e 7c 0d bd 1d 30 9d 3e f1 2b bc bd 76 7a 73 3d
       -0.034542255 0.3070077 -0.09188069 0.05944296
0000e0 83 80 52 be f5 d7 02 3d f8 9a 11 bb 78 8e 8e be
       -0.20556836 0.031944234 -0.0022217613 -0.2784307
0000f0 94 f9 c3 bc 39 f6 a2 bd 58 7f b1 3d fb a4 e1 3d
       -0.023922719 -0.079571195 0.08666867 0.11017796
000100 34 90 d8 3c 31 b4 2c 3e 82 25 26 3d c6 be 80 3b
       0.026435949 0.16865613 0.040563114 0.003928992
000110 ee 14 79 3d e0 77 be 3d c3 22 60 3e fe 45 e5 bc
       0.060810976 0.09300208 0.2188826 -0.027987476
000120 fe 1c ee bd de f8 04 3c 75 d3 8c bb 3f f8 22 be
       -0.116266236 0.008115975 -0.0042976686 -0.15915011
000130 e0 94 be 3d 8f 2e 44 3c 50 62 61 3d 8b b8 21 3d
       0.093057394 0.011973991 0.0550254 0.039482635
000140 89 81 01 3d fb 95 99 be d9 90 c7 bd a8 54 d9 3d
       0.031617675 -0.2999724 -0.097444244 0.1061185
000150 79 7f cd bd f8 15 57 3b cf 12 82 bb 5f ba d8 bd
       -0.10034079 0.003281949 -0.0039695273 -0.105824225
000160 ee b4 42 bd de 5b 1f bd df 3f 95 3e 75 89 75 3d
       -0.04753583 -0.03890597 0.29150292 0.059945542
000170 c4 09 85 bd c1 9e 2f 3d e9 8f a4 3d 18 13 9d be
       -0.06496003 0.04287601 0.08035261 -0.3067863
000180 f0 37 50 bd fe 42 b9 be 0e 0b 0b 3d 4d 42 26 3e
       -0.050834596 -0.36183923 0.03394609 0.16236229
000190 e9 83 7b bc d2 d3 a1 bc 2d b5 01 bc 87 cf 8f bb
       -0.015351274 -0.019754324 -0.007916731 -0.004388753
0001a0 f9 8d d9 bb 28 bf 65 3d 3e 68 7f 3d 7a db d6 3d
       -0.006639239 0.056090504 0.062355272 0.104910806
0001b0 41 3e e3 3c 1e 78 1a be 74 32 a1 be 52 1d c1 bd
       0.027739646 -0.15084884 -0.31483805 -0.094294205
0001c0 89 81 29 be 0f f8 07 bd 86 e8 9a 3b 70 fa b7 3d
       -0.1655332 -0.03319555 0.004727426 0.08983314
0001d0 3a 16 d1 bd 81 e8 9e 3d 19 86 d3 3d 0e 9a 5b bc
       -0.102093175 0.0775919 0.103283115 -0.013403429
0001e0 b5 89 40 3d 7d dd 4a 3e ca 31 1c 3e 06 1b a7 3d
       0.047006328 0.19811054 0.15253368 0.08159451
0001f0 22 ac 4b 3d 1b 3e f4 bd 59 52 b7 3d 14 a2 8a 3d
       0.049724706 -0.11925908 0.089512534 0.06769195
000200 0d 0f 32 3d 53 7d 6a bd 41 33 25 3e b1 07 46 bd
       0.043471385 -0.057248425 0.16132833 -0.04834718
000210 4a bf ef bd 62 0b 93 bd a0 a2 86 3e 6d 97 d7 3d
       -0.11706407 -0.071799055 0.26295948 0.10526929
000220 5e 4c 0a 3d 6f d3 16 3d 13 0f 9c bb dd d1 df bd
       0.033764236 0.036822733 -0.004762539 -0.109287
000230 8e e9 be 3d c9 cf 81 be 3e b7 22 be 89 62 86 3d
       0.09321891 -0.2535384 -0.15890214 0.06561763
000240 56 70 55 3d b3 9a 99 be 89 a3 13 bc a0 a5 a0 bd
       0.052109085 -0.3000084 -0.009011158 -0.078440905
000250 dc be 9c bc f7 9f 9c 3d fc ab 10 bd c2 79 38 bc
       -0.019133978 0.076476984 -0.035320267 -0.011259498
000260 a5 af 21 3e ff 62 1b bd 70 5b a6 3e 5a 19 f6 3d
       0.1578966 -0.037936207 0.32491636 0.12016554
000270 bf 6d c9 bd 05 72 f4 bc 5e 00 13 3e 64 b4 6c be
       -0.098353855 -0.029839525 0.14355609 -0.23115689
000280 b4 a2 e8 3d 90 3f dd bd a3 a3 87 3e 1c cb cd 3c
       0.11359158 -0.10803139 0.26492032 0.025121264
000290 cb 08 2a be a7 e7 22 3d ef ac c9 3c a7 e4 84 be
       -0.16604917 0.039771702 0.024618594 -0.25955698
0002a0 07 7a 55 be 53 57 f4 bd 63 1d ef 3d 9e 0a 7f 3d
       -0.20847331 -0.11930718 0.11675527 0.062265985
0002b0 19 bc d8 3d a0 bb b1 bd a0 00 18 be 86 fe 59 3d
       0.10582752 -0.08678365 -0.14843988 0.053221248
0002c0 7f 83 34 be 81 5e 3b be 58 0a 21 3e 19 3f a1 3c
       -0.17628287 -0.18297769 0.15726602 0.019683408
0002d0 01 7d 21 be 9f e2 d0 bd 76 b3 f4 3d f7 11 44 be
       -0.15770341 -0.101994745 0.11948292 -0.19147478
0002e0 12 71 1d bd a9 45 43 3b 33 dd 9a be 51 6a 9e 3b
       -0.03843791 0.002979616 -0.30246887 0.0048344512
0002f0 99 78 2b 3e 3a c6 b2 bc b9 7a 99 be 7e 4d 09 be
       0.16745223 -0.021823037 -0.29976442 -0.13408467
000300 86 6e 06 3e 12 26 f4 3a 21 ff 68 bd e6 bb 0a 3e
       0.13128099 0.0018627068 -0.056883935 0.1354824
000310 47 cd 34 bc 16 4d 2b 3d e5 6b 86 bd 67 ed 7d be
       -0.01103527 0.04182156 -0.06563548 -0.24797593
000320 da 58 2a bd a5 69 8c bc 17 56 af bd ee 78 cd 3c
       -0.04158864 -0.017140219 -0.08561342 0.025082078
000330 91 1d eb 3c ca f1 e6 ba 9e 88 5b bd 14 f2 95 be
       0.028700622 -0.0017619666 -0.053597085 -0.29286253
000340 48 aa 95 3e 28 60 39 3d f9 24 38 3d 98 26 cb bc
       0.29231477 0.045257717 0.044957135 -0.024798676
000350 29 04 76 3e a4 63 c9 bd ce 7c 84 be 03 b0 10 be
       0.24025024 -0.09833458 -0.25876468 -0.14129643
000360 37 79 6b be 28 dd ab 3c 9b 3f ed 3d ef da de 3c
       -0.22995459 0.020979479 0.115843974 0.027204005
000370 47 74 73 bb 83 63 40 3e 28 ad ae 3d 81 fb 30 3d
       -0.0037148164 0.1878796 0.08529121 0.043208603
000380 7b 43 f4 3d d6 89 08 bd bb 37 51 be 6e 93 b4 be
       0.119269334 -0.033334576 -0.20431416 -0.3526873
000390 12 cc 49 3e 82 d5 5e 3e d7 d6 9b 3e 19 35 9f ba
       0.19706753 0.21761134 0.30437347 -0.0012146562
0003a0 22 20 29 3d d9 e3 93 3d 9b 4e 1f be a8 9a 84 3c
       0.04129041 0.07221193 -0.1555733 0.016187027
0003b0 f6 3a bf bd b2 3a 4d be 3f d5 ec 3c 1e a6 7e 3c
       -0.09337418 -0.20041922 0.028910277 0.015542535
0003c0 d3 c5 3f 3d 93 1d d0 bd d1 73 bd be 0c f4 54 3c
       0.04681952 -0.10161891 -0.37002423 0.012997638
0003d0 03 9f 1c be 36 a6 4c 3e 25 22 6e bb 50 bb 67 3d
       -0.15295033 0.1998528 -0.003633627 0.05657512
0003e0 e4 d1 ff 3d 54 e1 ee 3c 5e 62 16 be 8e c4 bb 3d
       0.12491205 0.02916018 -0.14685962 0.09168349
0003f0 a3 5b fe 3d 78 c7 3f bc 81 af 36 3d 60 5e 32 3e
       0.12419822 -0.011705272 0.044600967 0.17418814

arith.constant7 f4 [24]
000000 9e 17 42 be 77 10 71 3e b4 03 22 3f 27 23 54 be
       -0.18954322 0.23541437 0.632869 -0.20716535
000010 fd d9 a5 3d 94 f2 15 3f 27 6e c9 be bc 69 74 3d
       0.080982186 0.5857327 -0.39341852 0.05967115
000020 4c 5f e8 3e a1 dc d1 be 27 a3 81 3d a3 63 0a 3e
       0.45385206 -0.4098864 0.06329947 0.13514571
000030 06 47 22 bf 46 a2 0d 3a 93 93 4c bf ce 56 31 3f
       -0.63389623 0.0005402904 -0.7991268 0.6927308
000040 11 ea 6b 3d ca ef 18 bd a7 04 19 bd 81 8e 27 bd
       0.05759627 -0.037338056 -0.037357952 -0.040907387
000050 ca 65 99 bf 73 c8 c0 3e 72 3c aa 3e 20 b4 8e be
       -1.1984189 0.3765293 0.3324924 -0.278718

arith.constant8 f4 [50]
000000 20 25 94 bd 0d 7c b4 be 64 31 03 be 25 62 8a be
       -0.072336435 -0.35250893 -0.1281181 -0.27028003
000010 4f fc 70 be 68 9b 1d be bc 50 07 3e 2d 65 90 be
       -0.23533748 -0.15391314 0.13214391 -0.2820219
000020 64 6e 54 be bf b8 52 be f9 33 30 be 87 0c 41 be
       -0.20745236 -0.20578288 -0.17207326 -0.18852435
000030 77 82 9b be 1d e6 0d be 69 9a 37 be 5b 51 44 be
       -0.30372974 -0.13857313 -0.17929997 -0.1917166
000040 ff e9 28 be 74 6e 58 be dd 89 d6 be b0 7f 62 be
       -0.16495512 -0.21135885 -0.41902056 -0.22119021
000050 a6 a8 ce bd 28 4e 5e be 2c c5 8f be d0 e1 7d bc
       -0.10090761 -0.21709502 -0.28080118 -0.015495732
000060 55 ee 65 be 09 b3 70 be df ea 5a be 6b af a0 be
       -0.22454198 -0.23505796 -0.21378659 -0.31383833
000070 dd c0 0c 3e 37 08 47 be c3 f7 47 be 6c 66 fb bd
       0.13745447 -0.19436727 -0.19528107 -0.12275395
000080 d0 72 56 be ee ce a3 be c0 0c 3d 3d b2 3f fc bd
       -0.20942235 -0.31993812 0.046154737 -0.123168364
000090 89 97 e6 be 96 46 be bd ff 34 4e be 3a be 39 be
       -0.45037487 -0.09290807 -0.20137404 -0.18138972
0000a0 de ec bb bd 21 33 a3 be 61 7b a7 be 5f 01 6a bd
       -0.09176038 -0.31874946 -0.32711318 -0.057130214
0000b0 13 04 89 bd 3a 40 5c be db 42 0d be c5 96 44 be
       -0.0669023 -0.21508875 -0.13795035 -0.19198139
0000c0 15 15 ef 3b df b7 98 bd
       0.0072962143 -0.07456946

arith.constant9 f4 [30]
000000 ec 0c 97 3e ca 00 c4 3e b3 cc 61 bd 0a d8 c9 3e
       0.29502046 0.38281852 -0.055126857 0.39422637
000010 0a 9f dd 3e 76 c4 e4 3e ba 6f 9c 3e 8f 4b f7 3e
       0.432854 0.44681138 0.3055399 0.48299834
000020 3b 75 b5 3e 8d 17 3a 3e 43 08 94 3e 86 53 af 3e
       0.35441002 0.18173046 0.28912553 0.3424341
000030 3b 35 ce 3e 8c 5c 04 3f 40 b2 ae 3d 60 84 cb 3d
       0.40274987 0.51703715 0.08530092 0.09937358
000040 79 68 08 3f ff ab 8d 3c 87 c3 af bd 89 48 3e 3f
       0.5328441 0.017293928 -0.08582216 0.7432943
000050 8e 16 41 3f 11 e9 14 3f d4 61 a5 3e 8b 1e 74 3e
       0.7542504 0.5816813 0.323012 0.23839776
000060 b6 de b0 3e e6 b2 d8 3e 4e 5a b9 3e 75 9b d2 3e
       0.34544915 0.4232399 0.3620171 0.4113423
000070 2a 13 83 3e 0d 1f 12 3f
       0.2560056 0.5707863

sequential_1/conv2d_1/convolution f4 [16, 3, 3, 1]
000000 bc 85 c7 bc 2f b8 f5 bb 80 ec 78 3e f1 e6 e9 bd
       -0.024355762 -0.007498763 0.24308968 -0.11421002
000010 ff 4b e1 ba 62 f2 83 bd c4 ed 9f be 29 70 31 ba
       -0.0017188786 -0.06442715 -0.31236088 -0.00067687273
000020 27 13 e2 3d b7 a0 4b bc bb 75 16 bc 46 58 95 bb
       0.11038809 -0.012428454 -0.009183343 -0.004557642
000030 01 09 35 bc 47 42 bd be 60 49 8f bd 53 c4 82 3c
       -0.01104951 -0.36964628 -0.06996417 0.015962755
000040 65 0d f3 bc 86 c9 bd bc 24 37 05 be cd 5f ab bb
       -0.029669473 -0.023167383 -0.13009316 -0.005229926
000050 47 07 62 3c 60 0e 8e be 1f 19 44 bc 55 cb 9d 3e
       0.01379568 -0.27745342 -0.01196888 0.30819193
000060 b8 76 9e be 4e c5 0e 3c 90 85 b0 3e 3c 49 5e 3e
       -0.3094995 0.008714033 0.344769 0.21707624
000070 ba f2 0c 3d 30 a4 c6 be df 5a 35 3e 14 81 8e 3d
       0.03441117 -0.3879714 0.17710446 0.069582134
000080 38 df 54 3e 70 22 b5 bd c9 bf 4b 3c 65 45 9b bc
       0.20788276 -0.08844459 0.012435862 -0.018953988
000090 72 ed ba 3c d0 83 86 3e 39 fd 9f 3e bd 9f 56 be
       0.0228183 0.2627244 0.3124788 -0.20959373
0000a0 c2 27 14 3e 7b dd 0c bd 22 42 ac be 37 1d 93 be
       0.14468291 -0.034390908 -0.33644205 -0.28733227
0000b0 3d a1 7c be ce 90 92 3e 49 5e 82 3e 0e be c5 3e
       -0.24670883 0.28626102 0.2546256 0.38621563
0000c0 89 e4 13 3d ea 69 3b be cb 04 61 3e d3 b9 e8 be
       0.03610662 -0.18302122 0.21974485 -0.45454273
0000d0 c7 e4 99 be 1b bd dd 3d 96 f0 9c 3e a1 5a 8b 3e
       -0.30057356 0.10827085 0.30652303 0.27217582
0000e0 d4 28 3b bc 39 1a 16 3c cd 31 47 3d 4b b4 9d be
       -0.011423308 0.009161525 0.048631478 -0.30801615
0000f0 ea 00 02 be a4 bd 82 be df 4c 57 be 33 f1 07 be
       -0.12695661 -0.2553531 -0.21025418 -0.13275604
000100 a0 6e a2 3d f3 9d 99 3e d5 41 88 be b4 03 9e 39
       0.07931256 0.30003318 -0.26612726 0.00030138867
000110 37 3a 0a 3e bf 4a 1d be 76 5b 93 be 6a 78 a7 bd
       0.1349877 -0.15360545 -0.28780717 -0.08177264
000120 2b 1d 7a 3e 3a 81 a1 3d 33 04 b1 3d 96 0b 12 3e
       0.24425189 0.07885976 0.08643379 0.14262232
000130 14 bc 55 3d 27 c4 8a bc d9 7c 3d 3e b8 6a fc 3d
       0.05218132 -0.016939236 0.18504657 0.123250425
000140 a9 f4 03 bd bb bc 9f be d5 5f a2 be a6 ff c0 be
       -0.032215748 -0.31198677 -0.3171374 -0.37695044
000150 90 37 a1 be 46 2c 87 be 5e 26 01 bf 98 f0 a4 3e
       -0.31487703 -0.26400965 -0.5044917 0.32214808
000160 97 cf 87 be 79 b8 75 be ac 2d 75 be 1b 75 ba 3d
       -0.26525566 -0.23996152 -0.23943204 0.09104367
000170 2e 5e e4 3c 7a fb 10 be 5b 44 6d 3e 5a 77 81 3d
       0.02787694 -0.1415843 0.23170607 0.06321593
000180 b3 f6 8a 3c 79 68 10 3e f3 ac 0b 3e 44 3a a3 3d
       0.016963338 0.14102353 0.13640194 0.07970098
000190 8b 76 14 3c b7 ad 9f bd 30 25 06 3d 16 ac 75 bd
       0.009061466 -0.07796805 0.03275031 -0.059978567
0001a0 1d 49 9f be ed a7 f1 3c df 71 5b 3e 80 23 44 3b
       -0.31110469 0.029499019 0.21430157 0.0029928386
0001b0 84 85 68 be 33 ee 9e be 07 76 c3 be e8 5f 1b 3e
       -0.22707182 -0.31041107 -0.38175985 0.15173304
0001c0 fa 89 e7 3d 25 e4 16 3b a6 88 b1 3d f7 a3 0f 3e
       0.11305614 0.0023024168 0.08668642 0.14027391
0001d0 56 02 9d 3e 2e b7 13 be 84 07 a2 be 0f 4b 5c bd
       0.30665845 -0.14425346 -0.3164636 -0.05378252
0001e0 42 4d 8d bd 78 80 a0 bd 9e ed 39 bc 15 b3 e6 3d
       -0.068995014 -0.078370035 -0.011348156 0.11264626
0001f0 5b 35 9c 3d a3 1d 97 3e d7 51 82 be 7e 65 0b bb
       0.07627364 0.295148 -0.25453064 -0.002127021
000200 e6 b4 5f 3e 22 26 8b be 81 7d 55 bd 86 90 a2 3d
       0.21846351 -0.2717753 -0.052121643 0.07937722
000210 a9 b3 1c be 8e 09 d9 bd 5e bb 4e 3e ff a7 81 3e
       -0.1530291 -0.105975255 0.20188662 0.25323483
000220 bc 0c aa bd 0d e0 3a be 78 d0 3e 3e 84 12 97 3c
       -0.0830321 -0.18249531 0.18634212 0.018441446
000230 5f 91 94 be ab f4 7e 3e e4 3d 0b bc 90 e5 99 be
       -0.2901716 0.24898021 -0.008498643 -0.30057955

sequential_1/conv2d_1/BiasAdd;sequential_1/conv2d_1/convolution; f4 [16]
000000 45 58 b5 3b 88 14 22 3c 2b 92 17 3b b0 08 1e be
       0.005534204 0.00989259 0.0023127894 -0.15433002
000010 7a 49 13 3d 9a 58 d8 bd da 77 50 bd 74 b1 48 3d
       0.035958745 -0.105637744 -0.05089555 0.048997357
000020 40 02 1b be 16 23 86 3e 95 20 1a be f9 83 dc bd
       -0.15137577 0.26198643 -0.15051492 -0.10767359
000030 97 aa b3 bc dd 60 cd bc df 18 03 3d 6b 24 ec bc
       -0.02193193 -0.025070602 0.03200614 -0.02882596
